HW4-HummingbirdAITest/Assets/Hummingbird-359896.onnx (onnx, 369938 bytes, 8 tensors)

action_model._continuous_distribution.log_sigma f4 [1, 5]
0	0xba756d1f	-0.00093622686
1	0xb9e8df8f	-0.00044417052
2	0x3bef49ca	0.0073024975
3	0xbc30f1ac	-0.010799807
4	0xbd2a9f31	-0.041655723

action_model._continuous_distribution.mu.bias f4 [5]
0	0xba988297	-0.0011635598
1	0x3a18c677	0.00058279134
2	0x3b392447	0.0028250383
3	0x3a947f6c	0.0011329479
4	0xb8cdc8fc	-9.812598e-05

action_model._continuous_distribution.mu.weight f4 [5, 256]
0	0xbc1caf9d	-0.009563354
1	0xbb22b82e	-0.0024829018
2	0x3c948d2c	0.018133722
3	0x3ba91791	0.00516028
4	0x3c7b5a80	0.015341401
5	0x3bf43129	0.0074521494
6	0x3af2c8f0	0.0018523019
7	0xbc18c3e6	-0.00932405
8	0x39cdd4bf	0.00039259155
9	0xbac00f24	-0.001465295
10	0xbc218a9f	-0.00985971
11	0x3ca0cae6	0.019628
12	0x3c6dcde5	0.014514421
13	0xbbe85b16	-0.0070909364
14	0x3cb23114	0.021751918
15	0x3c4a8518	0.012360834
16	0x3cad9494	0.021189012
17	0xbbe3be98	-0.006950211
18	0x3c092e73	0.008372891
19	0xbcc3452e	-0.023836698
20	0xbca3f626	-0.020014834
21	0x3b9af043	0.0047283485
22	0xbbbc6ca6	-0.0057502566
23	0x3cb3d177	0.021950467
24	0x3cfba950	0.030720383
25	0xbab01bfa	-0.0013436072
26	0xbcb986a7	-0.022647215
27	0x3bdf1e57	0.0068090367
28	0xbcc1a77c	-0.023639433
29	0x3bb1148e	0.0054040616
30	0x3c018c3c	0.00790697
31	0x3c56c5ab	0.013108651
32	0x3ba5612e	0.005046985
33	0xbd2db86c	-0.042412207
34	0xbc87d784	-0.016582258
35	0xbc4164ac	-0.011803787
36	0x3c8aa886	0.016926061
37	0xbca2fde4	-0.019896455
38	0xbc88c201	-0.01669407
39	0xbbbfc60f	-0.005852468
40	0xbb7b5e48	-0.0038355757
41	0x3af76012	0.0018873236
42	0x3cfa1722	0.030528609
43	0xbc3586ac	-0.011079472
44	0xbcab6e28	-0.02092655
45	0xbbb52517	-0.005528103
46	0x3a5fa158	0.0008530817
47	0x3bedea1c	0.007260574
48	0x3cb69125	0.022286007
49	0x3b79e22d	0.0038129196
50	0xbc454a24	-0.012041602
51	0xbc9c6462	-0.019090835
52	0xbca0f1f2	-0.019646619
53	0x3c710c81	0.014712454
54	0xbcebd872	-0.028789733
55	0x3b01bd53	0.0019796684
56	0xbd1a9827	-0.03774276
57	0xba9b3798	-0.001184213
58	0xba35e349	-0.000693847
59	0xbbd62124	-0.0065347124
60	0x3c888928	0.016666964
61	0xbac07526	-0.001468335
62	0xb9f059b2	-0.00045843195
63	0xbc8f0bbc	-0.01746165
64	0xbcf795c5	-0.030222783
65	0x3d0037cb	0.03130321
66	0x3c587fe6	0.013214087
67	0xbc087b65	-0.008330201
68	0x3b3002d6	0.002685716
69	0xbc654342	-0.013993086
70	0xbc6b03e5	-0.01434419
71	0x3c8a6450	0.016893536
72	0x3cdc35f0	0.026881188
73	0x3a96b44e	0.0011497827
74	0xbc84eb66	-0.016225528
75	0x3bd23c87	0.006415907
76	0x3ae87a60	0.0017736666
77	0x3ce2a3bc	0.027665965
78	0x3c7cd987	0.015432722
79	0x3c368e9d	0.0111424
80	0xbb43defb	-0.0029887545
81	0xbc251ad3	-0.010077196
82	0xbb4b05f5	-0.0030978892
83	0x3c494d47	0.012286491
84	0x3bc5be7a	0.0060346695
85	0xbc308522	-0.010773929
86	0xbb2cccb3	-0.0026367127
87	0xbadec167	-0.0016994894
88	0x3d009218	0.031389326
89	0x3c8a48e7	0.016880466
90	0x3ca87679	0.020564305
91	0x3c5fa493	0.013650077
92	0xbba58d64	-0.0050522555
93	0xbc00ff46	-0.007873362
94	0x37ad5727	2.066379e-05
95	0x3cca9285	0.02472807
96	0x3a746a74	0.0009323724
97	0x3ba5ee85	0.005063834
98	0xbd082a2d	-0.033243347
99	0x3c53fca4	0.012938652
100	0x3b03bd85	0.0020101976
101	0x3d1a1be9	0.037624273
102	0x3cfca730	0.03084144
103	0xbc2051f6	-0.009785166
104	0x3b2ba025	0.0026187983
105	0x3b08c35b	0.0020868394
106	0xbad42a3b	-0.0016186902
107	0xbcb68790	-0.022281438
108	0xbbef5bb1	-0.0073046316
109	0xbc841e00	-0.016127586
110	0xbaf2ff94	-0.0018539303
111	0xbc989e00	-0.018630028
112	0xbc54c111	-0.012985484
113	0x3cb116e2	0.021617357
114	0xbcc3815f	-0.0238654
115	0xbca57dfa	-0.020201672
116	0xbc372781	-0.011178852
117	0xbbc552c3	-0.006021829
118	0xbcabfa54	-0.02099339
119	0x3c514edc	0.012775149
120	0x3ba371f3	0.004987949
121	0x3d299fd7	0.0414122
122	0xbbffb455	-0.0078034797
123	0x3c4a06a1	0.012330682
124	0xbc4d41b1	-0.012527869
125	0x3cb5a43e	0.022173043
126	0x3c81b025	0.015831063
127	0xbd14bfa1	-0.036315564
128	0xbc9949a9	-0.018711882
129	0xbba7a625	-0.0051162415
130	0x3c75df63	0.015006873
131	0x3c81a8c6	0.015827548
132	0xbc23400a	-0.009963999
133	0xbbfe59c2	-0.007762165
134	0x3bff3bc4	0.007789107
135	0xbc5bad8b	-0.013408075
136	0x3c1ec4e7	0.0096905
137	0x3c3b9e52	0.011451321
138	0xbc6122ed	-0.013741237
139	0xb9353970	-0.00017282902
140	0x3d3f132f	0.046649154
141	0x3c2deb78	0.010615222
142	0x3c422b9c	0.011851218
143	0x3a92b0f9	0.0011191658
144	0x3c19e910	0.009393945
145	0xbc22bdd6	-0.009932956
146	0x3c868a5b	0.016423395
147	0xbba280c8	-0.0049591996
148	0xbc77fe53	-0.015136319
149	0x3c3d51f1	0.011555181
150	0x3d2624ee	0.040562563
151	0xbc260c13	-0.010134715
152	0x39b54d64	0.0003458067
153	0x3c9867d8	0.018604204
154	0xbb44f7f8	-0.0030055027
155	0xbc1a8791	-0.009431736
156	0xbc137f62	-0.009002538
157	0x3cc287b0	0.023746341
158	0xbcc59b4d	-0.024121905
159	0xbd0bd758	-0.034140915
160	0x3c0b3705	0.008497004
161	0xbd21c0e4	-0.039490595
162	0xbca50b75	-0.020147065
163	0x3bcdef4d	0.0062846304
164	0xbba81ab5	-0.005130137
165	0x3b746c13	0.0037295863
166	0xbc6e5124	-0.014545713
167	0xbc3ee8f1	-0.011652217
168	0xbc0722c6	-0.008248037
169	0xbb18bfa5	-0.0023307588
170	0xbbde99fb	-0.0067932582
171	0x3c2be0e6	0.010490632
172	0xbc68a9df	-0.014200657
173	0xbd316924	-0.04331316
174	0x3bacc11f	0.0052720453
175	0x3c21d5bc	0.009877618
176	0x3aa09a4c	0.0012253015
177	0x3b19acc9	0.0023448935
178	0x3b2f7f16	0.002677863
179	0xbc6c77c7	-0.014432854
180	0x3b4c595c	0.0031181192
181	0x3b7248df	0.0036969704
182	0x3a433665	0.0007446765
183	0xbb974d83	-0.0046173944
184	0xbc2c4496	-0.010514399
185	0x3d07cd89	0.033154998
186	0x3c02f883	0.00799382
187	0x3cbc372c	0.022975527
188	0xbc1066b4	-0.008813549
189	0xbc0fa92b	-0.00876836
190	0xbbc047ab	-0.0058679185
191	0x3c9b76f0	0.018977612
192	0xba66033d	-0.0008774286
193	0x3b8241f4	0.0039751474
194	0xbcbcf93e	-0.023068067
195	0x39b69160	0.00034822058
196	0x3bb0181c	0.005373968
197	0x3c61e748	0.013788052
198	0xbcd779e9	-0.026303248
199	0x3bcf17a4	0.006319957
200	0xbc82bfbf	-0.015960572
201	0x3cae1cbb	0.021253934
202	0xbc54f370	-0.012997493
203	0xbcc7569d	-0.024333293
204	0x3c088011	0.008331315
205	0xbb44db30	-0.0030037872
206	0x3c310874	0.010805238
207	0x3cc99b27	0.024610115
208	0xbca85fde	-0.020553526
209	0xbcc1c971	-0.023655625
210	0x3c983370	0.018579215
211	0x3b674cdb	0.0035293612
212	0x3bed2e04	0.0072381515
213	0x3a549f93	0.00081109366
214	0xbad3a3ec	-0.0016146875
215	0xbba52404	-0.005039694
216	0xbc625f10	-0.01381661
217	0xbc17dbfc	-0.009268757
218	0xbccd52cb	-0.025063893
219	0x3aae32a8	0.0013290243
220	0x3cc893ac	0.024484478
221	0x3c55c160	0.0130465925
222	0x3bad7723	0.005293743
223	0xbc02cac7	-0.007982916
224	0x3b71bb31	0.0036885256
225	0x3c347d37	0.011016182
226	0x3b3ee7a0	0.0029129758
227	0x3c8ffeb0	0.0175775
228	0x3acc0f39	0.0015568502
229	0xbcaeb975	-0.021328667
230	0xb99af7cd	-0.00029557795
231	0xbc8d4b8d	-0.01724794
232	0xbc07bffe	-0.008285521
233	0x3bde158a	0.00677747
234	0x3c8a1fbd	0.016860837
235	0x3a88309b	0.0010390462
236	0x3cd67286	0.026177656
237	0xbcdf301f	-0.027244626
238	0x3c3ba655	0.011453231
239	0xbd06adfc	-0.03288077
240	0xbc491153	-0.012272197
241	0x3cb7fa9f	0.022458373
242	0x3c74663c	0.014916953
243	0xbc6fcee6	-0.014636731
244	0x3cb6c387	0.022310032
245	0xba770d58	-0.00094242906
246	0x3c322131	0.010872171
247	0xbd2aa5d1	-0.04166204
248	0x3cfffb3e	0.031247731
249	0x3c6b48a0	0.014360577
250	0x3b80a859	0.0039263186
251	0xbc8a2dbe	-0.016867515
252	0xbc34fb1b	-0.011046196
253	0xbbf879c2	-0.007582874
254	0x3d50a94a	0.050942697
255	0xbc415925	-0.011801039

action_model._discrete_distribution.branches.0.weight f4 [1, 256]
0	0xbb95be3d	-0.0045697973
1	0xbbab5361	-0.0052284454
2	0xbbd7b7b3	-0.006583178
3	0xbbfe9450	-0.007769145
4	0xbba6aeaa	-0.0050867395
5	0xbb5819fa	-0.0032974468
6	0xbb413630	-0.002948176
7	0xbb9df1ed	-0.0048200996
8	0x3c36f6fe	0.011167286
9	0xbc14b4d5	-0.009076317
10	0xbb2af12f	-0.0026083698
11	0x3bbc550a	0.005747442
12	0xbc4c602d	-0.012474102
13	0x3ba297f4	0.004961962
14	0xbae3479a	-0.0017340065
15	0x397526da	0.00023379494
16	0x3bd367a2	0.006451563
17	0xbb18e68a	-0.0023330771
18	0xbaae350b	-0.0013290955
19	0xbaf806af	-0.001892289
20	0x3bd255ed	0.0064189346
21	0x3bb44bab	0.0055021844
22	0xbadd9222	-0.0016904513
23	0xbad639ab	-0.0016344091
24	0x3a0db684	0.000540592
25	0xbb940669	-0.0045173657
26	0xbc8f9edb	-0.017531803
27	0xb91c9023	-0.00014931014
28	0x39c07e91	0.00036715393
29	0x3bf5bfba	0.007499662
30	0xbbd5ad30	-0.0065208897
31	0x3b2b067f	0.0026096401
32	0x3b7c6137	0.0038510093
33	0xbbb1e198	-0.005428504
34	0x3b845321	0.00403823
35	0x3b10b0e5	0.0022078094
36	0xba387a0c	-0.00070372294
37	0x3b4d7472	0.0031349924
38	0xbbb38a03	-0.0054790988
39	0x3c0976ff	0.008390187
40	0xbbaa4ad8	-0.0051969104
41	0x3aae8b66	0.001331669
42	0x3c0f6373	0.008751738
43	0x39f2bee0	0.0004630005
44	0x3c08cba4	0.008349333
45	0x3b977b12	0.0046228254
46	0xbbc8fdfe	-0.006133794
47	0xbbb1d0b7	-0.005426492
48	0xb9d5b0c0	-0.00040758215
49	0xbb80a69f	-0.003926113
50	0xbae5cd35	-0.001753247
51	0xb9dd6c7f	-0.0004223324
52	0x3a2669f1	0.0006348184
53	0xbbaecf6a	-0.0053347843
54	0x3add8b80	0.0016902536
55	0xba48d70d	-0.00076614396
56	0xba30a56f	-0.0006738519
57	0xbba36ceb	-0.0049873493
58	0xbb904cbf	-0.00440368
59	0x3c0a3a5c	0.0084367655
60	0x39b50b08	0.0003453123
61	0x3b19b7d3	0.0023455515
62	0xbae0043f	-0.0017091109
63	0xbbcb97a4	-0.0062131453
64	0x3aeeb72b	0.0018212547
65	0xbb3d891b	-0.0028920833
66	0xbb4eb2da	-0.003153971
67	0xbad2a7cf	-0.0016071739
68	0x3af7cdaf	0.0018905903
69	0xbc4f2548	-0.012643166
70	0x3c008920	0.007845193
71	0xbc0e3447	-0.008679456
72	0x3bc895b4	0.0061213616
73	0xbb15756e	-0.002280559
74	0xbad5fd18	-0.0016326038
75	0xbbf5b5d7	-0.0074984836
76	0xbb568745	-0.0032734436
77	0xbb292bc1	-0.0025813433
78	0xbb0cf1c3	-0.0021506406
79	0xbb2eeea2	-0.002669253
80	0xbb8818f3	-0.004153365
81	0xbadab4ed	-0.0016686
82	0x3a9e3b1a	0.0012072057
83	0x3b1ab213	0.0023604676
84	0x3bdbfca5	0.006713467
85	0x3bb21e87	0.005435768
86	0xbb233668	-0.0024904255
87	0x3ba122d7	0.0049174833
88	0x3c2c8f98	0.010532282
89	0x3a35cee8	0.00069354335
90	0x381792e4	3.6138008e-05
91	0x3ab95cb7	0.0014142011
92	0x3b978767	0.0046242955
93	0x3c16dadc	0.009207454
94	0xbb5c1873	-0.0033583909
95	0x3c0ae767	0.008478022
96	0xbb8a6203	-0.0042231097
97	0x3c3bbcbe	0.011458574
98	0x3b97fe3d	0.004638462
99	0xbc3f9f64	-0.0116957165
100	0xbb0d2b9f	-0.0021540893
101	0xb8b1a0ad	-8.469946e-05
102	0xbb7b5ec3	-0.0038356043
103	0xbbdbdf8a	-0.0067099975
104	0xbc15c737	-0.009141735
105	0x3c72d91d	0.014822272
106	0x3bb54588	0.0055319704
107	0x3bebd782	0.0071973214
108	0x3a0f0227	0.0005455338
109	0x3c14e967	0.009088851
110	0x3b6467f7	0.0034852007
111	0x3c31904c	0.010837626
112	0x3b145c9f	0.0022638214
113	0x3a7d040f	0.0009651789
114	0xbabf7d6c	-0.0014609522
115	0xbb5a1df3	-0.0033282011
116	0xbac13637	-0.0014740889
117	0xbbdf9542	-0.006823213
118	0xbc21b235	-0.009869148
119	0xbb19462d	-0.0023387775
120	0xbc60cbf3	-0.0137205
121	0x3a56f805	0.000820041
122	0xbb9b3b30	-0.0047372803
123	0xbb9d8758	-0.004807394
124	0x3aa52279	0.0012598775
125	0xbbcfcdba	-0.006341663
126	0xbabf46f2	-0.0014593287
127	0x3c29dc9e	0.010367541
128	0xbb983a21	-0.0046456014
129	0xbaed062a	-0.0018083502
130	0xbb0a9047	-0.0021143125
131	0x3c037e2b	0.008025686
132	0x3c6bbb9d	0.014387992
133	0xbba1ce17	-0.004937898
134	0x3bdc2155	0.0067178407
135	0xbbbb8d64	-0.005723642
136	0xbbb07bc3	-0.0053858473
137	0x39dddd7a	0.00042317418
138	0x3c13331b	0.008984352
139	0xbb5f9fa0	-0.0034122244
140	0x3ba04146	0.0048905937
141	0x370a5670	8.245566e-06
142	0xbbb34d4b	-0.0054718605
143	0x3947f8b1	0.00019070764
144	0x3b4651ba	0.0030261115
145	0x3c480e73	0.012210476
146	0x3b972a79	0.0046132174
147	0x3bba2144	0.005680235
148	0xbbd12e1a	-0.0063836696
149	0xbc24c9a7	-0.010057843
150	0xbbb9c026	-0.005668658
151	0xbbad3e6a	-0.0052869814
152	0xbbfc9042	-0.0077076266
153	0xbc574cfb	-0.013140912
154	0x3a3fb05a	0.000731235
155	0x3c15a107	0.00913263
156	0x3bb0dddd	0.005397542
157	0xbb8018df	-0.003909215
158	0xbb3dd3e7	-0.0028965415
159	0xbb84f64b	-0.0040576807
160	0xba8df2e7	-0.0010829837
161	0x3b425a45	0.0029655856
162	0x3c005653	0.007833081
163	0x3bf37c0b	0.0074305586
164	0x3c097152	0.008388834
165	0xbc12e448	-0.008965559
166	0x3abbf729	0.0014340627
167	0xb9cca85e	-0.00039035355
168	0x3c6bc950	0.014391258
169	0x3be3a3a8	0.0069469996
170	0x3bad8d87	0.0052964124
171	0x3b967757	0.004591863
172	0xbc2018fa	-0.00977158
173	0x3bcaa454	0.00618414
174	0x3b019b44	0.0019776383
175	0xb8dbabd2	-0.00010474738
176	0x3bae0d80	0.005311668
177	0xbc33e1da	-0.01097914
178	0xbc07371d	-0.008252886
179	0xbafc690b	-0.001925738
180	0xbc22b87a	-0.009931678
181	0x3c26e616	0.010186693
182	0xbb804496	-0.003914426
183	0x3bd70ad3	0.0065625696
184	0xbbf6643d	-0.0075192736
185	0xb9a25c76	-0.00030967937
186	0x3af01f9a	0.0018319965
187	0xbbf9809d	-0.007614209
188	0xba47f5b8	-0.00076278625
189	0xbac5ffef	-0.0015106181
190	0xbb3a5c8e	-0.0028436515
191	0xbbc8f88a	-0.006133144
192	0x3ba51a83	0.005038561
193	0x3b55b5c3	0.003260956
194	0x3a7e04c7	0.0009690043
195	0xbbb64d26	-0.005563396
196	0x3c73e30a	0.014885673
197	0x3b28d41b	0.002576119
198	0x3b2ba3dd	0.00261902
199	0xbabadeef	-0.0014257113
200	0xb9affd1b	-0.0003356718
201	0x3b805a29	0.003916998
202	0xbb227f87	-0.002479525
203	0x3c190147	0.009338683
204	0xbc310f2b	-0.010806839
205	0x3afe1420	0.001938466
206	0xba72506b	-0.00092435506
207	0xbb39eb4b	-0.0028369005
208	0xbc30470f	-0.010759129
209	0xba57bbc3	-0.0008229578
210	0x3bc8cea3	0.0061281486
211	0x3baff5bb	0.0053698695
212	0xbb8a725e	-0.0042250594
213	0x3b2cc2ab	0.0026361148
214	0xbbcca13b	-0.006244806
215	0xba4049af	-0.00073351985
216	0xbbf57390	-0.0074905828
217	0xbae242b0	-0.0017262306
218	0x3b954997	0.0045558917
219	0x3b49077e	0.0030674632
220	0x3bd4be67	0.0064924243
221	0xbaef3150	-0.0018248949
222	0x3b318178	0.0027085226
223	0xbb2bc8c0	-0.0026212186
224	0x393b1f09	0.00017845271
225	0x3c02cc42	0.007983269
226	0xba9d9655	-0.0012022952
227	0xba20618b	-0.00061180507
228	0xbbeb590a	-0.007182245
229	0x3a02f51f	0.00049956323
230	0xbbd26978	-0.0064212643
231	0xbab20ceb	-0.0013584172
232	0x3b6acc90	0.0035827495
233	0x3c062203	0.00818682
234	0xbbc3a753	-0.0059708743
235	0xbb1f4308	-0.0024301428
236	0xba45ee75	-0.00075504865
237	0x3c445f2e	0.011985583
238	0x3aecfe67	0.0018081189
239	0x3b5e37b8	0.0033907723
240	0xbb84b05f	-0.0040493454
241	0xbb8792d7	-0.0041373777
242	0xbb95c43f	-0.0045705135
243	0x3b19474d	0.0023388446
244	0xbc3f3211	-0.011669652
245	0xbc1b0d9f	-0.009463697
246	0x3b466bac	0.003027658
247	0xbc710738	-0.014711194
248	0xbbbae0e5	-0.005703079
249	0xba546fd7	-0.00081038236
250	0xbc134583	-0.008988741
251	0xbb999e31	-0.0046880473
252	0xbb873624	-0.004126327
253	0xbc13cae1	-0.009020538
254	0xbbbdf19b	-0.005796624
255	0xbc63c867	-0.01390276

network_body._body_endoder.seq_layers.0.bias f4 [256]
0	0x3b5f635d	0.0034086325
1	0x3b82b7f9	0.0039892164
2	0xbb9733e9	-0.0046143425
3	0x3bd0e7c3	0.0063752844
4	0xba50a5ec	-0.00079592946
5	0x3aacf863	0.0013196584
6	0x3c87eb14	0.016591586
7	0x3c1b4c93	0.009478706
8	0x3bcc7bb9	0.006240335
9	0x3c4b5286	0.012409812
10	0x3c210a27	0.009829081
11	0x3bfadc03	0.007655622
12	0x3bed459b	0.0072409636
13	0x3b9d524e	0.0048010712
14	0x3c66b46b	0.014081101
15	0x3c58ccfc	0.013232466
16	0x3bf38219	0.0074312803
17	0x3aa80b7e	0.0012820808
18	0x3c345a0f	0.0110078
19	0x3c0820db	0.008308615
20	0x3c110d05	0.008853202
21	0x3c077156	0.0082667675
22	0x3c6746a3	0.014115962
23	0x3bff5b2e	0.007792852
24	0x3c0d0ee1	0.008609504
25	0x3c4b0511	0.012391345
26	0x3b1d2146	0.0023976131
27	0x3bca08b8	0.00616559
28	0x3b2bc5b8	0.002621038
29	0x3c2b61c7	0.010460324
30	0x3b5c143a	0.0033581392
31	0x3c4ece7d	0.012622473
32	0x3beba909	0.0071917814
33	0x3c1ca8af	0.009561702
34	0x3b90c281	0.004417718
35	0xbb874f51	-0.0041293283
36	0x3bb0b2a1	0.005392388
37	0xbc32c914	-0.010912199
38	0x3c3b0c6b	0.011416535
39	0x3c3ebd9d	0.011641887
40	0x3bf37f20	0.007430926
41	0x3bbd5932	0.005778455
42	0x3c912107	0.017715944
43	0xbb33b179	-0.0027419014
44	0x3b5f9a01	0.0034118893
45	0x3b57bb99	0.0032918213
46	0x3b7a257e	0.003816932
47	0x3b99d09d	0.004694058
48	0xbb65306e	-0.0034971493
49	0x3c03cd59	0.008044564
50	0xbbf183ac	-0.007370433
51	0x3b04edd4	0.0020283358
52	0x3c234fb6	0.009967735
53	0xbc0cd1e8	-0.008594967
54	0x3ba6dc05	0.0050921463
55	0xbb937702	-0.004500271
56	0x3c2ffdf4	0.0107416995
57	0xbb890a0a	-0.004182105
58	0x3bed5ed6	0.0072439713
59	0x3bdebff1	0.0067977835
60	0x3c83a347	0.016069068
61	0x3bc77649	0.0060870987
62	0x3be8b6e4	0.0071018804
63	0x3b67d4cd	0.0035374642
64	0xbb7a5d88	-0.0038202722
65	0x3aabdc34	0.001311189
66	0x3b1eb775	0.0024218236
67	0x3c077b20	0.008269101
68	0xba91c9ee	-0.0011122802
69	0x3ba38a29	0.004990835
70	0x3b5a699d	0.003332711
71	0x3b8ec78b	0.0043572835
72	0xbbb298ed	-0.005450359
73	0x3c6cf412	0.014462488
74	0xba0ab346	-0.0005290996
75	0x3baa1a36	0.005191113
76	0xba1456d8	-0.00056586927
77	0x3b8859cc	0.0041610952
78	0xbbfe172d	-0.0077542276
79	0x3bcfc5f2	0.0063407356
80	0x3b47e3e8	0.0030500833
81	0x3c60f6c3	0.013730708
82	0xbb5b0572	-0.0033419994
83	0xbb07058c	-0.0020602671
84	0xbbc97176	-0.006147559
85	0x3b8f41ce	0.004371858
86	0x3b16ed16	0.0023029498
87	0x3c1e31fb	0.009655471
88	0x3b6f4ef7	0.0036515573
89	0x3b4c6f3f	0.0031194238
90	0xbc05b0b4	-0.008159805
91	0x3b6dd1ca	0.0036288374
92	0xbb8418ab	-0.004031261
93	0x3c309bda	0.010779345
94	0xbb1cd9d3	-0.0023933544
95	0xbb6048f4	-0.003422317
96	0xbae8c0ff	-0.0017757713
97	0x39308e8c	0.00016837771
98	0x3c2c1869	0.010503867
99	0x3c18210e	0.009285225
100	0x3bb8ad8c	0.005635923
101	0x38d474ab	0.00010130679
102	0xbba5a413	-0.0050549596
103	0xbc27677f	-0.0102175465
104	0xbbcfdd75	-0.0063435384
105	0x3c7a13a5	0.015263473
106	0xbabb6f99	-0.0014300226
107	0x3b76d111	0.0037661234
108	0x3bcb37e4	0.006201731
109	0x3ae738ea	0.0017640863
110	0xbb30a75c	-0.0026955223
111	0x3b2792f7	0.0025569776
112	0x3aea0d23	0.0017856698
113	0xbc16b414	-0.009198207
114	0x3bb90c76	0.0056472374
115	0x3c5f071a	0.013612533
116	0xba7c57e8	-0.0009626136
117	0xb8a181bb	-7.7012424e-05
118	0x3c0ccb97	0.0085934615
119	0xb79cf65b	-1.8711367e-05
120	0x3b42dbe9	0.0029733127
121	0xbacd6111	-0.0015669187
122	0x3c650eff	0.013980626
123	0x3a210d8c	0.0006143681
124	0x3b84bfde	0.0040511927
125	0x3bf2f8c0	0.007414907
126	0x3b8a9e37	0.0042302865
127	0x3b2b9f0f	0.0026187336
128	0xb9779bcf	-0.00023613799
129	0xbba8c7da	-0.0051507773
130	0x3c228fe6	0.009922003
131	0x3ba8551e	0.0051371
132	0x39937cc1	0.00028130974
133	0xba7ffb57	-0.00097649306
134	0x3aaece8c	0.0013336702
135	0x3badfab4	0.005309427
136	0xbbb21bbf	-0.0054354365
137	0x3bbe2f38	0.0058039688
138	0x3c1c97c2	0.009557666
139	0x3c6b191f	0.014349251
140	0x3a6ceade	0.00090376835
141	0x3b854d2f	0.004068039
142	0xbaaa8596	-0.0013009782
143	0x3bcf54fd	0.00632727
144	0xbaa405cb	-0.0012513933
145	0x3a99bb32	0.0011728762
146	0x3bc1aeaf	0.0059107165
147	0x3b87433d	0.0041278885
148	0xbc1a1744	-0.009404961
149	0xbb125e44	-0.0022334019
150	0xb911d448	-0.00013907359
151	0x3c9b9fbe	0.01899707
152	0x3c821675	0.015879849
153	0xbaa7b3f3	-0.0012794718
154	0x3c0eb488	0.008710034
155	0x3a8e5bf6	0.0010861147
156	0x3c2abd0e	0.010421051
157	0xba9c40f1	-0.001192121
158	0x3ae5d493	0.0017534666
159	0x3b37ba0b	0.0028034474
160	0x3bf725c4	0.007542344
161	0xbacce595	-0.0015632386
162	0x3c87477d	0.01651358
163	0x3c2754d2	0.010213094
164	0x3c466cd1	0.012110905
165	0x3a7d0f8f	0.00096535025
166	0x3af864af	0.0018950904
167	0x3bc06026	0.005870837
168	0xba9a8b2a	-0.0011790742
169	0x3bb5e71b	0.0055512316
170	0xbbc7ff00	-0.0061033964
171	0x3c8ddef9	0.017318236
172	0x3b38e140	0.0028210431
173	0x3a39ad67	0.0007083029
174	0x3bf2a5ae	0.0074050045
175	0x39f63b78	0.00046965084
176	0x3bc2d2ae	0.005945525
177	0xbbc56bed	-0.0060248286
178	0x3b6e9208	0.003640296
179	0x3bd6c040	0.0065536797
180	0x3bdbd1be	0.006708353
181	0xba5d5d6d	-0.00084444025
182	0xbae0fd64	-0.001716536
183	0xbbad4d60	-0.005288765
184	0x3b224250	0.0024758764
185	0xb9f1e88f	-0.00046140372
186	0xb8657b23	-5.4712535e-05
187	0x3c36e22a	0.01116232
188	0xbbe8cf04	-0.0071047563
189	0xbc1cf372	-0.009579526
190	0xbbd17ea1	-0.006393269
191	0x3c98f635	0.018672088
192	0x3a5adfe8	0.00083494047
193	0x3c89fefe	0.016845223
194	0xbb8ee98e	-0.004361338
195	0x3b590b5f	0.003311835
196	0x3bfe6584	0.0077635664
197	0xbb82a80b	-0.0039873174
198	0xb8afa350	-8.3750696e-05
199	0xbb94ad79	-0.004537281
200	0x3c014875	0.00789081
201	0x3b1cfd00	0.002395451
202	0x3c55991b	0.0130369915
203	0x3b9e4b5e	0.004830762
204	0x3b8f430f	0.0043720077
205	0x3bd1ff56	0.0064086122
206	0x3c115066	0.008869266
207	0x3bfef486	0.0077806143
208	0x3b742515	0.0037253548
209	0x3b9b3b2a	0.0047372775
210	0x3b1c0d0a	0.0023811483
211	0x3be9d0f2	0.007135504
212	0x3b6104b6	0.0034335083
213	0x38f4eb95	0.00011678707
214	0xbb6bdb7e	-0.0035988982
215	0x3be4b8a7	0.00698002
216	0x3be96991	0.00712318
217	0xbc127c42	-0.008940758
218	0x3b4ce802	0.0031266217
219	0x3b99aa23	0.0046894713
220	0xbb564c1c	-0.0032699173
221	0xbb18291d	-0.0023217865
222	0x3c58649b	0.01320758
223	0xbbd8721e	-0.0066054007
224	0x3c8db96c	0.01730033
225	0xbb4dce2a	-0.00314034
226	0x3b803a39	0.0039131907
227	0x3b87a746	0.0041398136
228	0xbc84822b	-0.01617535
229	0x3bf7d6d4	0.0075634513
230	0x3afd55d1	0.0019327943
231	0x3c5aa886	0.013345843
232	0x3c04ec6b	0.008113007
233	0x3cb96ef3	0.022635913
234	0x3bb37c07	0.0054774317
235	0x3ac44092	0.0014972857
236	0x3c16d91b	0.009207035
237	0x3ab22b55	0.0013593236
238	0x3b31976a	0.0027098306
239	0xbaa581f2	-0.0012627228
240	0xbaffe73c	-0.0019523869
241	0x3ba7996d	0.0051147253
242	0xb76be8ef	-1.4061326e-05
243	0x3c105660	0.008809656
244	0x3c3cd554	0.011525471
245	0x3c107f4f	0.008819415
246	0x3a964318	0.0011464087
247	0x3bb3a4be	0.0054822853
248	0x3b6b1e3f	0.0035876182
249	0x3c2f7065	0.010707949
250	0x3b2990fa	0.0025873766
251	0xbb55e35e	-0.0032636742
252	0x3c0eefdf	0.008724182
253	0x3b4de023	0.0031414113
254	0xbb98f4cd	-0.0046678544
255	0x3c1b34fe	0.009473084

network_body._body_endoder.seq_layers.0.weight f4 [256, 94]
0	0xbe1db35d	-0.15400453
1	0x3daf0b63	0.08547094
2	0xbd6458d3	-0.055748772
3	0xbddc7b52	-0.10765709
4	0x39da8f89	0.00041687142
5	0x3d81eede	0.063443884
6	0x3db1bd5b	0.08678695
7	0xbda26d31	-0.07930983
8	0x3e46cb8f	0.19413589
9	0xbe0e7c33	-0.13914566
10	0x3e28cdf5	0.16484816
11	0x3dec0b00	0.115255356
12	0xbe199ab1	-0.15000416
13	0x3d3f25c3	0.04666687
14	0xbd0aa2e3	-0.033846747
15	0x3e4b03c5	0.19825657
16	0x3e42ab6b	0.19010703
17	0xbd8d8517	-0.069101505
18	0xbde107dd	-0.10987828
19	0x3d45b248	0.048265725
20	0x3e4aab7d	0.1979198
21	0xbd810e95	-0.063016094
22	0xbd512e47	-0.051069524
23	0xbdc2cea5	-0.095120706
24	0xbc53a380	-0.012917399
25	0x3dacc5b3	0.08436146
26	0xbde06061	-0.10955883
27	0x3dd17f42	0.102293506
28	0xbe5e602c	-0.21716374
29	0xbdd747f0	-0.10511768
30	0xbe06b958	-0.1315664
31	0x3debbd42	0.115107074
32	0x3cbebfba	0.023284782
33	0xbd797a53	-0.060907673
34	0xbd21431b	-0.039370637
35	0xbd8bcffe	-0.06826781
36	0xbdbb1076	-0.09133999
37	0xbdbe9269	-0.09305269
38	0xbdba559a	-0.090983585
39	0xbdfde8d6	-0.123979256
40	0x3da2445e	0.07923196
41	0xbdb05355	-0.08609644
42	0x3d568bb8	0.05237934
43	0x3ce42312	0.027848754
44	0x3d67e0fd	0.05661105
45	0x3d845cb8	0.06462997
46	0x3da1658b	0.07880696
47	0xbda794e7	-0.08182698
48	0x3d9b6af4	0.07588759
49	0xbd52f33c	-0.051501498
50	0xbd1512c9	-0.036394868
51	0x3e1d9436	0.15388569
52	0xbe027afa	-0.12742224
53	0x3e226ba6	0.15861377
54	0xbe40d608	-0.18831646
55	0xbbba379c	-0.0056828987
56	0xbcd162f0	-0.025559872
57	0x3d89ef94	0.06735149
58	0xbcc6d654	-0.024272121
59	0xbe4a8655	-0.19777806
60	0x3bf4273c	0.007450966
61	0x3d81f812	0.06346144
62	0xba6136f2	-0.00085912563
63	0xbd85d3d8	-0.065345466
64	0xbc34e760	-0.011041492
65	0xbc2d2c56	-0.010569653
66	0xbc843f1d	-0.016143376
67	0xbd5ad9f8	-0.053430527
68	0xbdb8ebf8	-0.090293825
69	0x3e01871c	0.12649196
70	0x3dd02824	0.10163906
71	0x3b55978f	0.0032591557
72	0x3e05cc7e	0.13066289
73	0xbe28bfc5	-0.16479404
74	0xbd2ebbbb	-0.042659502
75	0x3d8ae624	0.06782177
76	0x3d965252	0.0733992
77	0x3d729282	0.059221752
78	0x3e2a7c18	0.166489
79	0xbe40a30d	-0.18812199
80	0x3e13cc14	0.14433318
81	0x3d0c55dd	0.034261573
82	0xbde0f8b3	-0.109849356
83	0x3e529557	0.20564781
84	0xbeba74a7	-0.36417124
85	0x3cad24dd	0.021135742
86	0xbddf9cf6	-0.1091861
87	0x3da150b7	0.07876723
88	0x3e19591b	0.14975397
89	0x3e0ccef4	0.13750821
90	0xbd0224aa	-0.031773247
91	0xbd63424f	-0.05548316
92	0xbe343dfc	-0.1760177
93	0x3dc082dd	0.0939996
94	0x3de8e7fd	0.11372373
95	0xbddaefc5	-0.10690264
96	0x3e7cc0b1	0.24682881
97	0x3e26d0b7	0.16290556
98	0xbd8df267	-0.06931
99	0x3d9e55db	0.077312194
100	0x3e15bb3b	0.14622204
101	0xbd9d04df	-0.07666945
102	0x3d97cf5d	0.07412598
103	0x3dd25961	0.10270954
104	0xbdbf72bf	-0.09348058
105	0xbd64fc48	-0.055904657
106	0x3e68f406	0.22749338
107	0x3e1c6410	0.15272546
108	0xbd6aa301	-0.05728436
109	0x3db75ecf	0.0895363
110	0x3ce5de37	0.028060062
111	0xbdf40c38	-0.11916393
112	0x3dfde9e4	0.12398127
113	0xbd1d040f	-0.03833395
114	0x3dc9f1e8	0.09860593
115	0x3dcd0845	0.10011343
116	0xbe029060	-0.12750387
117	0x3d331bc1	0.04372764
118	0xbd6a03c8	-0.057132512
119	0xbd280d41	-0.041028265
120	0x3da13011	0.07870496
121	0xbc18166b	-0.009282689
122	0x3d115b26	0.035487317
123	0x3d804e51	0.06264938
124	0x3c826580	0.01591754
125	0x3dabd6a0	0.08390546
126	0x3e00009f	0.12500237
127	0xbc3abd4f	-0.011397674
128	0xbd13a1f5	-0.036043126
129	0xbd0ec021	-0.034851197
130	0xbda551ad	-0.08072219
131	0x3dbda4a3	0.092599176
132	0x3d756271	0.059908334
133	0x3ddd10bb	0.10794207
134	0x3d94b933	0.072618864
135	0x3e033f2a	0.12817064
136	0x3de3c692	0.11121859
137	0xbe72b874	-0.23703176
138	0xbbc98bd5	-0.0061507025
139	0x3d84ccae	0.06484352
140	0x3ddce61a	0.10786076
141	0x3d4be901	0.049782757
142	0x3db2f13c	0.08737418
143	0x3b9168ae	0.0044375276
144	0x3e36611c	0.17810482
145	0xbe00a9c5	-0.12564762
146	0xbe17d697	-0.14827953
147	0xbdc2154d	-0.09476719
148	0xbdf34dab	-0.11880048
149	0x3d0c8ec2	0.034315832
150	0x3d6ea029	0.05825821
151	0xbd947a56	-0.07249896
152	0xbd555f32	-0.05209274
153	0xbc77d3cd	-0.015126181
154	0x3e145155	0.1448415
155	0xbd608b3d	-0.054820288
156	0x3d1da653	0.038488697
157	0xbc830ee4	-0.015998311
158	0xbcba1d11	-0.022718938
159	0xbb984759	-0.004647177
160	0xbe12aa1e	-0.14322707
161	0xbd4e8b76	-0.05042597
162	0xbb1f123f	-0.002427235
163	0xbe3153d2	-0.17317131
164	0x3d8aa76d	0.06770215
165	0xbde3f8ab	-0.11131414
166	0xbce0a502	-0.027422432
167	0xbd9f9e96	-0.0779392
168	0x3e5238fa	0.20529547
169	0xbd87ca67	-0.06630402
170	0xbe03c858	-0.12869394
171	0xbc43c337	-0.011948398
172	0xbd31b765	-0.04338779
173	0x3d0712bd	0.032976855
174	0x3df3eddf	0.11910605
175	0x3db0b303	0.08627894
176	0xbcb658af	-0.022259085
177	0x3e7a8267	0.24463807
178	0xbd0b5c5d	-0.03402363
179	0xbd266952	-0.040627785
180	0x3ce66213	0.028122937
181	0x3e07a793	0.13247518
182	0xbe023a14	-0.12717468
183	0xbddbc611	-0.107311375
184	0xbe1c5a3f	-0.15268801
185	0xbd14aad6	-0.036295734
186	0x3d3d20d3	0.04617388
187	0xbdab5727	-0.08366232
188	0x3e28d43d	0.16487212
189	0xbe15f777	-0.14645182
190	0x3ddf2218	0.10895175
191	0xbd573297	-0.05253848
192	0xbd641a12	-0.055688925
193	0x3c01c0b8	0.007919483
194	0x3e1ce190	0.1532042
195	0xbd06ed8f	-0.032941397
196	0x3dfeed11	0.124475606
197	0xbd366833	-0.044532966
198	0x3e81a656	0.25322217
199	0xbdbea04d	-0.09307919
200	0x3d119bc7	0.03554895
201	0x3e03bb81	0.12864496
202	0xbd1877c4	-0.037223592
203	0xbd4a8dd2	-0.049451657
204	0x3d8a9778	0.067671716
205	0xbe1569e8	-0.14591181
206	0xbc60fecd	-0.013732624
207	0xbe5bbe80	-0.21459389
208	0x3db4991c	0.08818266
209	0xbdca4da0	-0.09878087
210	0x3dfb4a76	0.12270062
211	0xbdecd9e9	-0.115650006
212	0x3c551e4d	0.013007713
213	0x3d44e615	0.048070986
214	0x3d807fc9	0.06274373
215	0x3ba0bcef	0.004905335
216	0xbdc31823	-0.09526088
217	0xbd3682d8	-0.044558376
218	0x3c03f42a	0.008053819
219	0xbe08ef66	-0.13372573
220	0x3d93bd86	0.07213883
221	0x3c2e2824	0.010629687
222	0x3e0bc19c	0.13648075
223	0xbd577c2a	-0.052608646
224	0x3c51e5f9	0.012811177
225	0xbc343298	-0.010998391
226	0x3e372252	0.17884186
227	0x3e028bcd	0.12748642
228	0x3c06cab3	0.008227038
229	0xbd0aa95e	-0.033852927
230	0x3d6bb21d	0.05754291
231	0xbddfacd1	-0.10921634
232	0x3a3a0c08	0.000709713
233	0x3cf61ba0	0.03004247
234	0xbd3e6084	-0.046478763
235	0x3d908a91	0.070576794
236	0xbe51ef42	-0.20501426
237	0xbe44982f	-0.19198678
238	0x3de14192	0.10998835
239	0x3ca99e27	0.020705296
240	0x3ccd8513	0.025087869
241	0xbd3f951e	-0.04677307
242	0xbe16ae4c	-0.14714926
243	0xbceb3a9d	-0.028714472
244	0xbd382749	-0.04495934
245	0xbdcc4526	-0.099741265
246	0x3e8493ad	0.25893918
247	0xbe4f258f	-0.20229171
248	0xbd97809d	-0.07397578
249	0xbd24e8af	-0.040260967
250	0x3dc819d1	0.09770549
251	0xbab02f91	-0.001344191
252	0x3d213fa9	0.03936735
253	0xbe198369	-0.14991535
254	0x3e1e9947	0.15488158
255	0x3d90eaec	0.07076058

network_body._body_endoder.seq_layers.2.bias f4 [256]
0	0x3c2103b1	0.00982754
1	0x3b1768ff	0.0023103354
2	0x39ae1848	0.00033205957
3	0xbba41e2e	-0.0050084805
4	0x3bb0b757	0.0053929496
5	0x3bc604c8	0.0060430504
6	0x3b0b1c3c	0.0021226546
7	0x3b5b4ead	0.0033463642
8	0x3acb8f41	0.0015530364
9	0x3b3a2f4c	0.0028409539
10	0x3c1cb896	0.009565493
11	0x3a4e0aad	0.0007859867
12	0xb9249298	-0.00015694869
13	0x3bad1a49	0.0052826745
14	0x3c471921	0.012151987
15	0x3b0597f9	0.0020384772
16	0xba282d40	-0.0006415434
17	0x3bc69e11	0.0060613235
18	0x39f1e7ba	0.00046139752
19	0x3bf9419c	0.007606698
20	0x3bd4a38e	0.006489224
21	0x3be318e0	0.0069304556
22	0x3c4bdd50	0.012442902
23	0x3a87bbe1	0.0010355675
24	0x3b0b7f98	0.0021285769
25	0x3bbc9f58	0.0057563
26	0xbb151a0f	-0.0022751128
27	0xbb66f8eb	-0.0035243582
28	0x3b884de5	0.0041596764
29	0x3b82a042	0.0039863894
30	0x3a6e6f8a	0.00090956
31	0x3b59d744	0.003323988
32	0x3a680770	0.0008851206
33	0xba7f8d39	-0.0009748522
34	0x3c0c7a25	0.008574043
35	0x3a5b5b49	0.00083677896
36	0x3b71944f	0.003686208
37	0x3b7fddd5	0.0039042134
38	0x3c095ac3	0.008383456
39	0x3bbd5064	0.0057774056
40	0xb945726b	-0.00018830008
41	0x3a939c4e	0.0011261792
42	0x3bcfda53	0.006343165
43	0xbaca76ab	-0.0015446743
44	0x3986147c	0.00025573734
45	0x3b4eaac4	0.003153489
46	0x3afd657a	0.001933261
47	0xbabc5925	-0.0014369829
48	0x3b52b123	0.0032149039
49	0xbbd391fd	-0.006456612
50	0x3b848c66	0.004045057
51	0x3ba366ef	0.004986636
52	0x3c05068a	0.008119235
53	0x3bec3779	0.0072087613
54	0x3c0a3b64	0.008437011
55	0x3a9ffb0a	0.0012205553
56	0x3ab2228b	0.0013590617
57	0xbb17b830	-0.0023150556
58	0x3b3df2b2	0.002898377
59	0x3b08f01d	0.0020895072
60	0x3b84ca38	0.0040524267
61	0x3b5846a4	0.003300109
62	0x3a7fcf8e	0.0009758406
63	0x3b3aa91c	0.0028482145
64	0xba0bcafc	-0.0005332676
65	0x3bf44ee6	0.0074556945
66	0x3baf5f19	0.0053519127
67	0x3a0cdba5	0.0005373306
68	0x3b27f284	0.0025626728
69	0x3c061ba8	0.008185305
70	0x3aea3631	0.0017868934
71	0x3bb04c05	0.005380156
72	0x3c31f3fb	0.010861392
73	0x3b737234	0.0037146928
74	0x39b66468	0.00034788554
75	0xbb83280f	-0.004002578
76	0xba3b587a	-0.0007146668
77	0x3b1e67b0	0.002417069
78	0x3b44ed3d	0.0030048632
79	0x3b961b6d	0.004580906
80	0x3c2f8bfa	0.010714525
81	0x3c1aadb4	0.009440828
82	0xba2eb910	-0.00066651497
83	0x3a5ba56f	0.00083788385
84	0x3b831a00	0.004000902
85	0xbb07f430	-0.0020744912
86	0xbb31701a	-0.0027074874
87	0x3ad4f961	0.0016248637
88	0x3c06f698	0.0082375035
89	0x3b795720	0.0038046315
90	0x3bbfa642	0.005848677
91	0x3a2790f8	0.00063921465
92	0xb9e4ce18	-0.000436411
93	0x3b9eddea	0.0048482316
94	0x3ab6cbcb	0.0013946233
95	0x3b7a9e66	0.0038241385
96	0xbba08e2c	-0.0048997607
97	0xbb9439cf	-0.004523493
98	0x3c513646	0.012769287
99	0x3b29e1ba	0.0025921897
100	0x3b08f7ec	0.0020899726
101	0x39d35aec	0.00040312798
102	0x3a9a2059	0.0011758908
103	0xb913d57c	-0.00014098542
104	0x3b13d5c4	0.0022557834
105	0x3a6b2fca	0.00089716597
106	0x3ad4e1c1	0.0016241596
107	0x3abbf4f2	0.0014339967
108	0x3b46168f	0.0030225848
109	0x3a14f3ea	0.0005682098
110	0xba04f7ea	-0.00050723425
111	0xb8ecc6ce	-0.00011290387
112	0x3b8cd371	0.0042976667
113	0x3b00cda2	0.0019653817
114	0x3b664d57	0.0035141313
115	0xbb7ba188	-0.003839584
116	0xba7f788f	-0.00097454427
117	0x3afc9f20	0.0019273497
118	0x3a3d3db4	0.00072189723
119	0xbaf38e23	-0.0018581789
120	0xbb2f3733	-0.0026735782
121	0x3acc20ed	0.0015573777
122	0x3bbe4d88	0.0058075823
123	0x3b3a128c	0.0028392402
124	0x3ba033ac	0.0048889723
125	0xb9cdef16	-0.0003927878
126	0x398663ca	0.0002563282
127	0x3c0414ee	0.008061631
128	0x3c1ab510	0.009442583
129	0x3b3757d3	0.0027975931
130	0xbace7165	-0.0015750347
131	0xba872d3a	-0.0010313161
132	0x3ac22bfc	0.0014814134
133	0xbb151df1	-0.0022753442
134	0x3acd2714	0.0015651905
135	0x3a1e9e2d	0.00060507917
136	0x3ba764c2	0.005108447
137	0xb9953770	-0.000284608
138	0x3b98a5ee	0.0046584522
139	0x3b67b429	0.0035355187
140	0x3bbd44b0	0.0057760105
141	0x3bafaeb3	0.005361402
142	0xb75865f9	-1.2898346e-05
143	0x3afb6587	0.0019180038
144	0x3bbbbd9d	0.005729391
145	0xbbb65056	-0.005563776
146	0x3b12b5c4	0.0022386173
147	0xba424b22	-0.00074117084
148	0x3a1dd5f1	0.00060209545
149	0x3b0e3aa3	0.002170243
150	0x3a34d740	0.000689853
151	0x3b79abe1	0.0038096833
152	0x3b8170fb	0.003950236
153	0x3c187951	0.009306268
154	0x3c2400c9	0.010009953
155	0xbad6b572	-0.0016380979
156	0x39c75a1a	0.0003802337
157	0x3ab85ec6	0.0014066331
158	0x3a4b8f98	0.00077652326
159	0x38a83d3a	8.0222686e-05
160	0x3b1c803e	0.002388015
161	0x3b2ab2b3	0.0026046454
162	0x3bb38727	0.005478758
163	0xb9e08e75	-0.00042830748
164	0x3b015f0a	0.0019740486
165	0x390a2b51	0.00013176842
166	0x3c0d6d52	0.008632021
167	0x3b198505	0.0023425233
168	0x3b8477be	0.0040425947
169	0xb9925806	-0.00027912873
170	0x3bb8f640	0.0056445897
171	0x3a87f3a5	0.0010372294
172	0x3aacf8d4	0.0013196715
173	0x3c346237	0.011009744
174	0x3b418e74	0.0029534372
175	0x3bd03a27	0.0063545885
176	0x3b887115	0.004163871
177	0xbb0231dd	-0.0019866147
178	0x3b0920da	0.0020924122
179	0x3b6541df	0.003498189
180	0x3b822b47	0.003972444
181	0x3b156d37	0.0022800693
182	0xbbbd4caf	-0.0057769637
183	0x3bcfb904	0.0063391943
184	0x3bbad881	0.005702079
185	0x3b6f6fff	0.003653526
186	0x3b8aa06d	0.00423055
187	0x3b737aa0	0.0037151948
188	0x3aedded3	0.0018148072
189	0xbafcee4a	-0.001929709
190	0xb9172f0a	-0.00014418006
191	0x3bb597be	0.0055417707
192	0x3a831777	0.00100015
193	0xbac20390	-0.0014802087
194	0x3bb5e0b5	0.005550469
195	0xb8d9dba8	-0.000103882805
196	0x3b513d00	0.0031927228
197	0xba874819	-0.0010321169
198	0x3ae8d021	0.0017762223
199	0xbab068a2	-0.0013458917
200	0xba4e1ac0	-0.00078622624
201	0x3b6c3cf9	0.0036047085
202	0x3bc54e9e	0.006021335
203	0x39f287dd	0.00046259063
204	0xba74fd99	-0.00093456503
205	0xb9cb7951	-0.00038809565
206	0x3c2c0fc4	0.010501806
207	0x3bcbacb4	0.006215656
208	0x3b3f7bd5	0.0029218097
209	0x3b268f4d	0.0025415004
210	0xbaedd4b4	-0.0018145056
211	0x3a87fcc5	0.0010375014
212	0x3afc4ad4	0.0019248375
213	0x3b3bc779	0.002865283
214	0x3a3c1711	0.0007175068
215	0x3bcdc003	0.006278993
216	0xbb0e517d	-0.0021716051
217	0x3b74c3b7	0.00373481
218	0xb97826db	-0.00023665598
219	0x3aa157f8	0.0012309542
220	0x3a0df812	0.00054156885
221	0x3ae4ad93	0.0017446749
222	0x3b21c24d	0.0024682463
223	0x3aa0497f	0.0012228935
224	0x3b916f44	0.0044383127
225	0x3ae29ba4	0.0017288816
226	0x3ba577bf	0.0050496752
227	0x3b0fc6f9	0.0021938665
228	0xbb3a2ba7	-0.0028407366
229	0x3b858994	0.0040752385
230	0xb911f362	-0.00013918945
231	0x3be22406	0.006901267
232	0x3b8e59ad	0.0043441863
233	0x3c6edf62	0.014579626
234	0x3bc14a40	0.005898744
235	0x3b815945	0.0039474093
236	0x3b1eed39	0.0024250282
237	0xba2a893e	-0.0006505436
238	0x3bc63890	0.0060492232
239	0x3bef70cb	0.007307147
240	0x3b3c1a20	0.0028702095
241	0x3c6b096b	0.014345507
242	0x3be61834	0.007021928
243	0x39aa10ca	0.00032437436
244	0x3bafeddd	0.0053689317
245	0x3b0f9174	0.0021906765
246	0xba39fab9	-0.00070945505
247	0x3bb2f412	0.0054612244
248	0xb8f131e3	-0.00011501068
249	0x3b98b60f	0.004660375
250	0x3ba28741	0.004959971
251	0x3b4b529b	0.0031024578
252	0x3bb73e5b	0.00559215
253	0x3acb529b	0.0015512289
254	0x39dcf14c	0.0004214145
255	0xba3b458d	-0.0007143848

network_body._body_endoder.seq_layers.2.weight f4 [256, 256]
0	0x3deab3cc	0.11460075
1	0xbc91e5d6	-0.01780979
2	0x3b66600c	0.0035152463
3	0x3c073c67	0.008254147
4	0xbd916b19	-0.071005054
5	0x3aaa959c	0.0013014558
6	0xbdd04822	-0.10170008
7	0x3d0067ae	0.031348877
8	0x3cb4d790	0.022075444
9	0xbc80f804	-0.015743263
10	0x3d7cbf4a	0.061705865
11	0x3dca9659	0.09891958
12	0x3ce512e4	0.02796311
13	0xbd254946	-0.040353082
14	0xbcb49da1	-0.02204782
15	0x3e059cda	0.13048115
16	0xbda38cf0	-0.07985866
17	0xbd59b052	-0.053146668
18	0xbd96d6c1	-0.0736518
19	0xbd90d3d7	-0.07071655
20	0xbc18cdca	-0.009326408
21	0xbe0d718c	-0.13812846
22	0xbc9f7b07	-0.019467844
23	0x3d762eed	0.060103346
24	0x3ba17ee6	0.0049284576
25	0x3c2006c0	0.009767234
26	0xbd4aafbb	-0.049483996
27	0xbd4151d1	-0.047197167
28	0x3d29afd8	0.041427463
29	0xbceda2cd	-0.029008294
30	0x3ab381b8	0.0013695275
31	0xbd8e361a	-0.06943913
32	0x3d6eb172	0.058274694
33	0xbc92e137	-0.017929656
34	0x3daf0c5b	0.085472785
35	0xbd15d9cd	-0.036584664
36	0xbdee27b5	-0.11628667
37	0xbdf7b5f2	-0.1209525
38	0xbd044405	-0.03229143
39	0x3e0fd9e7	0.14047967
40	0xbd3f6f00	-0.046736717
41	0xbdb5890b	-0.088640295
42	0xbd9ba592	-0.075999394
43	0x3db0bdb9	0.08629937
44	0xbda33f9d	-0.07971118
45	0x3da5b97e	0.080920205
46	0xbc854890	-0.016269952
47	0x3d222155	0.03958257
48	0x3c979394	0.018502988
49	0xbda5a13e	-0.08087395
50	0xbcea1c01	-0.028577806
51	0xbd972781	-0.07380582
52	0xbb144352	-0.0022623134
53	0xbb1bed23	-0.0023792468
54	0x3d0373de	0.03209292
55	0x3caf2c9d	0.021383578
56	0xbd89cfef	-0.06729113
57	0x3c9b41a2	0.018952195
58	0xbd499378	-0.049212903
59	0xbde93819	-0.11387653
60	0xbda9012e	-0.08252178
61	0xbd8c4065	-0.0684822
62	0x3d988ccc	0.0744873
63	0x3ce828d4	0.02833978
64	0xbd6074bf	-0.054798838
65	0x3c9a361f	0.018824635
66	0x3d4c533f	0.049884077
67	0xbc111151	-0.008854226
68	0xbd4ae980	-0.04953909
69	0xbdc6ee0d	-0.09713373
70	0x3ccfe53f	0.025377868
71	0x3d4cdee9	0.05001727
72	0x3b15b239	0.0022841825
73	0xbc9bf168	-0.01903601
74	0x3d434b55	0.047679264
75	0x3dd49f33	0.10381927
76	0x3d4ea006	0.05044558
77	0x3da99b7f	0.08281612
78	0xbde42728	-0.11140281
79	0x3c0219d7	0.007940731
80	0x3c3f1f6d	0.011665207
81	0x3c44924f	0.011997773
82	0xbcb322e3	-0.021867221
83	0x3dddcc46	0.10829978
84	0x3bbdd0eb	0.005792727
85	0x3c6f8d3d	0.014621076
86	0x3d191f68	0.037383467
87	0xbd8f8374	-0.070074946
88	0x3dc3cd62	0.09560658
89	0xbd919d72	-0.071101084
90	0xbd4e73f8	-0.050403565
91	0x3ca79826	0.020458292
92	0xbdaf9a24	-0.08574322
93	0xb9a55392	-0.00031533517
94	0xbd9e1a80	-0.07719898
95	0x3cb4b659	0.022059606
96	0x3d2156fa	0.039389588
97	0x3a73db2d	0.0009302374
98	0x3c9fb406	0.019495022
99	0xbd46b5b0	-0.048513114
100	0xbdc1e491	-0.09467424
101	0xbd8187ab	-0.06324705
102	0xbcd2d7b7	-0.025737626
103	0xbd8e6760	-0.06953311
104	0x3b1a9624	0.0023588026
105	0x3aa349fc	0.0012457962
106	0xbdd08bbc	-0.10182902
107	0xbce01759	-0.027354883
108	0xbd4578e6	-0.048211
109	0x3c072bbf	0.008250176
110	0x3cdafa6c	0.026730739
111	0x3db220b6	0.08697645
112	0x3b68c734	0.0035519125
113	0xbde0e865	-0.10981826
114	0x3cd95156	0.026528042
115	0x3d033b52	0.032038994
116	0x3d9c6c9c	0.07637903
117	0x3ce87926	0.02837808
118	0xbd824b39	-0.06362004
119	0x3e04015a	0.1289114
120	0x3cc15736	0.023601156
121	0x3d8e3ea6	0.06945543
122	0x3c1d0014	0.009582538
123	0x3d4bb25e	0.04973065
124	0x3d32f86b	0.04369394
125	0xbc480538	-0.0122082755
126	0x3d1d1d65	0.03835811
127	0x3d93d907	0.07219129
128	0xbcaaf728	-0.020869806
129	0xbb4759be	-0.003041848
130	0xbbca29e5	-0.006169545
131	0xbdaf2ba6	-0.08553247
132	0x3cdd7456	0.027033012
133	0xbd793329	-0.060839806
134	0x3d8da9dc	0.06917164
135	0x3d649be5	0.055812735
136	0xbdef65cd	-0.11689339
137	0xbceb1443	-0.028696185
138	0xbd899907	-0.06718641
139	0xbb6ba89a	-0.0035958649
140	0x3d5d4185	0.054017562
141	0xbd19a22f	-0.037508186
142	0x3e164f67	0.14678727
143	0xbcefd13f	-0.029274581
144	0x3d8e0b5e	0.06935762
145	0x3d856a23	0.065143846
146	0x3d59f680	0.053213596
147	0x3d25b398	0.040454477
148	0xbcacf3be	-0.02111232
149	0x3d5d5f5b	0.054046016
150	0xbe10233f	-0.14075945
151	0xbcd30a2c	-0.025761686
152	0xbd1828ab	-0.03714816
153	0x3a5b0b8b	0.0008355907
154	0x3ced0223	0.028931683
155	0xbaaa84bf	-0.0013009532
156	0x3be124ea	0.0068708556
157	0xbbded2f1	-0.0068000485
158	0xbd026797	-0.031837072
159	0xbd41152a	-0.047139324
160	0x3d66e8b0	0.05637425
161	0xbdf6861b	-0.12037297
162	0x3d81ef2a	0.06344445
163	0x3c74a148	0.014931031
164	0xbd38de39	-0.045133803
165	0xbc0f6190	-0.008751288
166	0x3d2e92b8	0.04262039
167	0xbd2c3f84	-0.04205276
168	0x3cea2085	0.02857996
169	0x3d9bf859	0.07615728
170	0xbba6aeea	-0.0050867693
171	0x3ba5921b	0.0050528175
172	0xbcea45f2	-0.028597806
173	0xbdc2061a	-0.0947382
174	0x3cae9ad6	0.021314066
175	0x3d2d323d	0.04228424
176	0xbcad274b	-0.0211369
177	0xbdbe1fb9	-0.09283394
178	0x3d409133	0.047013473
179	0xbca4d73a	-0.02012216
180	0x3dcd8f04	0.10037044
181	0x3dba9052	0.09109558
182	0x3db0ce2f	0.086330764
183	0x3b962c4d	0.004582918
184	0xbc958ea5	-0.018256495
185	0xbd3ea261	-0.046541575
186	0x39498e53	0.00019221874
187	0xbd959dbf	-0.07305478
188	0xbe01feb4	-0.12694818
189	0x3ba1784f	0.004927672
190	0x3c2b478f	0.010454073
191	0x3caa0cc3	0.020758038
192	0x3ce4d5ed	0.027934039
193	0xbc5398b6	-0.012914827
194	0xbc703b28	-0.014662541
195	0x3cf63fd5	0.030059734
196	0xbd609803	-0.05483247
197	0x3cc0de48	0.023543492
198	0xbd9f046f	-0.077645175
199	0x3d4d4e4c	0.050123498
200	0x3d02b273	0.031908464
201	0x3d55a516	0.05215939
202	0x3ccb0768	0.024783805
203	0xbd1bf692	-0.038076945
204	0xbc851b1e	-0.016248282
205	0x3d48ba7a	0.049005963
206	0x3cd2a306	0.025712501
207	0xbd8d3fc3	-0.06896927
208	0xbd4860e4	-0.048920527
209	0x3dc6672a	0.09687646
210	0x3dd0b630	0.101909995
211	0x3d7eeb9f	0.062236425
212	0x3e221635	0.15828784
213	0x3c149c9a	0.00907054
214	0x3cb3cc57	0.021948023
215	0xbd7e3db7	-0.062070575
216	0x3dd5b1f3	0.10434332
217	0x3bc24e7d	0.0059297667
218	0x3cff0f50	0.031135231
219	0x3ab30641	0.001365848
220	0x3cec46ba	0.028842319
221	0x3cb3f65c	0.02196806
222	0x3d4a8df2	0.049451776
223	0xbd1bcd8d	-0.038037825
224	0x3d864c0a	0.06557472
225	0xbd80e0ea	-0.06292899
226	0xbe1f07fe	-0.15530393
227	0xbdab02a8	-0.08350116
228	0xbda32778	-0.079665124
229	0xbd8aaa37	-0.06770747
230	0xbc7b5b9b	-0.015341665
231	0x3d348c0e	0.04407888
232	0xbc1729a6	-0.009226238
233	0xbd8ca06e	-0.06866537
234	0xbd80d6c8	-0.06290966
235	0x3d99fbb5	0.075187124
236	0xbc867986	-0.016415369
237	0x3dcff061	0.101532705
238	0x3d9112e8	0.07083684
239	0x3d608981	0.054818634
240	0x3d5f5e91	0.054533545
241	0x3de3d6e5	0.11124972
242	0xbca6f254	-0.020379223
243	0xbd0c022d	-0.034181762
244	0x3cc0c4a4	0.023531266
245	0xbdabbd73	-0.08385744
246	0xbbba4cf3	-0.0056854426
247	0xbd3d4ab5	-0.046213824
248	0x3d29f068	0.041489035
249	0xbd9b81ed	-0.07593141
250	0xbda5a138	-0.08087391
251	0xbd27afb7	-0.04093906
252	0xbd8b0336	-0.06787722
253	0x3ca6b42d	0.020349586
254	0x3d853bad	0.06505523
255	0x3dc42ded	0.09579072
